Assets/NeuralNetwork/Hummingbird.onnx (onnx, 318169 bytes, 7 tensors)

39 f4 [1, 5]
00000000: f69f 14be f67f 03be aacc 1cbe 3790 b7bd
00000010: 1085 95bd
-0.14514145 -0.12841782 -0.15312448 -0.08963054 -0.0730077

distribution.mu.bias f4 [5]
00000000: d1ef 01b9 61a1 433b f16e cf3a b382 bf3b
00000010: 3e45 0f3b
-0.00012391737 0.0029850828 0.001582591 0.005844438 0.002186134

distribution.mu.weight f4 [5, 256]
00000000: 4e68 293b 7f51 33bd 0eec b8bc 4b0b 723d
00000010: a007 88bd 92fa c03b 7f03 84bd a0ec 29bd
00000020: 86e4 3bbd 05ac e43c e8c5 a7bb 2cb8 ac3c
00000030: ae89 1a3d 61ca adba 347c 2fbd a099 8fbc
00000040: 82ed 27bd 5e1a bdbd e29f b5bc 7256 e3bc
00000050: 510f 84bd 4c6c 903d c291 dabc 7e28 6f3b
00000060: 079f 8abb 38e2 04bd 65cb 5f3d 26f0 d0bc
00000070: b526 993c 09a1 93bd 028f bfbb 1be9 d9bc
00000080: 66c2 dfbc a2ff 9e3c dd62 b03c 22e5 5538
00000090: e664 0d3d da19 2fbd 522a abbd ff2b 9ebc
000000a0: 79c4 e5bc 16c0 16bc b188 e23b 831e dabc
000000b0: 711b 66bc 0bbd 1f3d 0556 d23b 88c7 a63c
000000c0: c70b a73c 079b 6ebd 26f1 b13c 5c2a 93bc
000000d0: 6fae a03b c335 0fbb cdf3 303c 4312 423d
000000e0: 788e cf3c 4eb0 99bc c568 bd3b 49f8 873c
000000f0: 5846 1abc da48 25bc bb74 14bd 567c ba3c
00000100: d93b 21bc 3a9a e83c e4c0 99bc 41db 4a3d
00000110: 8fab ffbc 1174 1b3d 8783 dfbc eff9 7f3d
00000120: 31ed b73c 994d 9eb9 4edf 47bd 9c07 313d
00000130: 52ae 17bd cdca 68bd b475 b0bc 82de 18bd
00000140: c1b4 5c3c f15a 99bd eb89 42bd 602b 703d
00000150: e1b7 8b3d 11a5 79bd ca7c dfbc a642 1cbd
00000160: 2a5e 1bbd 2735 9b3b a0fa aebc 2565 76bd
00000170: e1df c33c be46 cebc 1ddd 3b3c 87cd 3dbd
00000180: aac4 acbc a94e 70bc 1e1f 59ba ffb7 ffbb
00000190: c7df 293d 8d7b 023c 00d1 7dbd e157 353d
000001a0: a808 1cbc 5d1b 9fbd b5dd 8fbd daa9 e33c
000001b0: f5e1 0cbd dea7 cebc f80e d2bc d8c1 253d
000001c0: d29c 7c3d 256d 12bd e89c e93c 68b5 cc3c
000001d0: deda d93c e25a 8ebb a2ac 35bd de0a 3bbc
000001e0: b325 52bb dfa5 efbc d9ee 683d 8306 7ebd
000001f0: 62e3 2dbd df87 003d 355e b6bc d834 993d
00000200: 2f16 22bd 3540 6abc d2f3 303d 5b87 67bd
00000210: 623c 883c dbfe 1dbc bd52 28bd b65e 643c
00000220: e498 adb9 c65c 1cbd a429 693d 4e6f b7bc
00000230: 52a2 273d 726a 2c3b 1387 c83c 0663 50bd
00000240: c8e9 8cbd bd4c cebc aacb a2bc c4e7 423d
00000250: 8eb5 cf3c 492c 2e3d f609 9abc dc38 923d
00000260: a8e5 69bd 8f9c 923c 2e4d 34bc f895 e13a
00000270: 9d07 593d e471 fc3c 5975 15bd c776 6dbd
00000280: 63ad 233d c183 853c a295 83bd c770 8b3d
00000290: b591 5dbd 3c79 6abd 319e 583c 22d7 4fbd
000002a0: 4cbb d63c bd9c 75bd 0fc7 003b 57e3 37bd
000002b0: 426d cbbc 49f3 003d 46f4 e43b c183 d63c
000002c0: db15 04bc bff8 27bc cfbe 1a39 e78a 40bd
000002d0: 3edf eb3c 8b0a 143d 7a64 37bc f08e a53b
000002e0: 1324 45bc 094b 493c 23d0 ecbc 8a22 52bd
000002f0: c800 c0bc a3bb 413d bc25 9bbc 4426 cbba
00000300: cfa1 923d 95aa c5bc b336 4fbc 3284 72bc
00000310: 6433 35bc 05f1 383b 6b12 513c 7836 79bd
00000320: 6ab6 83bb 86d9 83bd e07f bfbd 50f7 dd3c
00000330: 8fb0 a9bc bc4e 873d b508 abbb 8354 43bd
00000340: 12a3 7b3c fad7 abbc 69b6 e63c 9b2f c0bb
00000350: c7e4 6a3d 1989 93bb 0fcf 0f3d a9c0 2e3d
00000360: a37a 7a3d a002 3c3d 8ade 2ebd 7a2a 99bd
00000370: 3ff3 dc3c fe0e 023c 643a 10bd 39fb 693c
00000380: dfbf 7bbd 0d4d 93bc 9e71 0fbd 45b1 003d
00000390: 6b28 6d3c 832f 9b3d ccd8 c3bc 1f8d 04bd
000003a0: 570a 323c 0d0a b73c e3b3 2b3c e036 073c
000003b0: 22c7 04bd 86be 8fbc 4d8a eebc f76d cebc
000003c0: bd19 1ebc 40ba 813c ee61 91b7 a269 17bd
000003d0: 86d3 93bc f1b5 a03a 856b 1bbd 17f0 d03b
000003e0: 6a8d daba 0518 f8bb 38dd 613c 060f 8cbd
000003f0: e31d 23ba 112f 643d f0e5 bb3d aa80 b1bc
0.0025849524 -0.043778893 -0.022573497 0.0590928 -0.06642079 0.0058892453 -0.06445979 -0.04148543
-0.045872234 0.027914057 -0.005120028 0.021083914 0.037728958 -0.0013259166 -0.04284306 -0.017529309
-0.04099799 -0.09233545 -0.022170965 -0.027751181 -0.06448234 0.07051906 -0.02668083 0.003649264
-0.0042303833 -0.0324423 0.05463733 -0.025505137 0.018695215 -0.072084494 -0.0058459053 -0.026600411
-0.027314376 0.019409005 0.021531517 5.0996554e-05 0.034520052 -0.042749263 -0.08357681 -0.019308088
-0.028047787 -0.00920107 0.0069132675 -0.026625877 -0.0140446285 0.038998645 0.0064189457 0.020358816
0.020391358 -0.058253314 0.021721434 -0.017964534 0.0049036066 -0.0021852113 0.010800314 0.047380697
0.02533649 -0.018760826 0.0057803118 0.016597884 -0.009416185 -0.01008817 -0.036244135 0.022764366
-0.009840929 0.028393853 -0.018768735 0.049525503 -0.031209735 0.037952486 -0.027284397 0.062494215
0.022451969 -0.00030193923 -0.048796944 0.043220147 -0.03703148 -0.05683403 -0.0215405 -0.037321575
0.013470829 -0.07488049 -0.04749481 0.058635116 0.068221815 -0.060948435 -0.027281184 -0.0381495
-0.0379316 0.004736561 -0.021359742 -0.060155053 0.023910465 -0.025180217 0.011466292 -0.046338584
-0.02108987 -0.014667192 -0.000828253 -0.0078039165 0.041473176 0.007964027 -0.061966896 0.04427326
-0.009523548 -0.07768891 -0.07024709 0.027790952 -0.034395177 -0.02522653 -0.025641903 0.040468067
0.061672993 -0.03574862 0.028517202 0.024988845 0.026593622 -0.00434433 -0.04435409 -0.011416165
-0.0032065928 -0.029253898 0.056868408 -0.06201793 -0.042453177 0.031379577 -0.022261718 0.07480782
-0.039571937 -0.014297535 0.043201275 -0.05652557 0.016630355 -0.009643282 -0.04109453 0.0139385965
-0.00033111044 -0.038174413 0.056924477 -0.022391941 0.040926285 0.0026308564 0.02447847 -0.050875686
-0.06880528 -0.025183076 -0.019872505 0.04758431 0.025355127 0.042522702 -0.018803578 0.07139751
-0.057103783 0.017896919 -0.011004729 0.0017210832 0.052985776 0.030816026 -0.036488865 -0.057974603
0.039960276 0.016298177 -0.064250246 0.0680862 -0.054094035 -0.057244524 0.0132213095 -0.050742276
0.026212357 -0.05996393 0.0019649898 -0.044894543 -0.024832372 0.031482015 0.0069871275 0.026185872
-0.008061851 -0.010252177 0.00014757666 -0.047007468 0.028792974 0.036142867 -0.011193389 0.00505244
-0.012032527 0.012285956 -0.028907841 -0.05130247 -0.023437873 0.047298085 -0.018938892 -0.0015499075
0.07159769 -0.024129191 -0.012647319 -0.014802026 -0.011059616 0.002821983 0.012760739 -0.06084296
-0.004019548 -0.06437974 -0.09350562 0.027095467 -0.020714073 0.06606814 -0.005219544 -0.04768802
0.015358703 -0.02097701 0.028163152 -0.00586505 0.057347085 -0.0045024273 0.035109576 0.042664204
0.06115211 0.04590094 -0.0426927 -0.07478805 0.026971458 0.007938145 -0.035211936 0.014281088
-0.06146228 -0.017981077 -0.035020463 0.031419057 0.014474968 0.075774215 -0.023907088 -0.032361146
0.010866723 0.02234366 0.0104799 0.008252829 -0.03241647 -0.017546903 -0.029118681 -0.02519892
-0.009649691 0.015835881 -1.7330949e-05 -0.036965974 -0.018045198 0.0012261254 -0.037944335 0.006376277
-0.0016674225 -0.0075712227 0.013785653 -0.06838803 -0.000622241 0.05570895 0.091747165 -0.021667797

network_body.linear_encoder.seq_layers.0.bias f4 [256]
00000000: 0bdd a63c c9e0 823b 5d43 c23c 27b7 633d
00000010: ccb7 a43c 5198 cdba e99f b23c 6561 ec3b
00000020: 01f1 d4bc ffc6 be3c 2c5d d23c 1696 ccbb
00000030: 7c3b ba3c 44ee e33c 1cbd 47bb 2b2b 75bc
00000040: a79a a43c 1522 823a b52b 07bc c3bb e63c
00000050: dc68 bc3b c8c8 d9bb d04b 103c 1432 56bb
00000060: 43a2 203d 3864 91bc ccb4 aa3c 9486 283a
00000070: 2757 3b3a e8bd 133c ac67 d03c d56d b6bc
00000080: bae9 773c 2169 273b e798 c23a 8b8e 433d
00000090: 65cb 07ba 859e df3b 4189 f43b 784f aebc
000000a0: dc13 a73c 1043 a43c af10 4d3c ba0a e03c
000000b0: cfbc adbb 0eb6 ab3c e823 62bb 3a5a 17bc
000000c0: 4c77 e23b 9c27 9c3c 7acf db3c 63dc ad3c
000000d0: 350e 1ebb f0b4 5ebb d3c6 46bb 4a57 8abc
000000e0: 8b8a 3f3d 606c 303b 1213 35bc 1255 cd3c
000000f0: 9075 94bb 0fc5 d23c aace 27bc 6034 2c3d
00000100: cb98 623c 76bf 523b 50e1 ba3c 9af3 213c
00000110: ce74 a83c 2f2d 96bb 1dfe 933b f422 9dbb
00000120: be1f 193c 4cb8 64bb 0565 9b3c b00b f4ba
00000130: 0a56 883b 9342 06bb 12bb d33c 4824 0e3c
00000140: 506c 4f3c f136 a03c 4f1d 343d d9ea 61bb
00000150: 6f4f 953c 29c4 783c 1a75 8b3c ab6c 3fba
00000160: 3300 053d 1ea3 a23c d6ef 073d cfd9 6abc
00000170: 4304 023b 6ef5 7cba f528 75bc 84a2 a43c
00000180: 5f98 e73c 0562 143d 5dd5 7f3b 9cf9 da3b
00000190: aa8a 02bc 124c 983a e362 183c 8b28 c33c
000001a0: 260c 443d 2a49 b4bb df48 3b3c 08d6 c33c
000001b0: f747 ff3c add6 d6bb 430d b43a 04a6 833c
000001c0: e613 fc3c 9cfa 1bbb 463f b13c c62d 133d
000001d0: d606 023d 3c3f bf3c 3584 e83c 1260 083b
000001e0: 373e d83c da8a f63c adc1 6ebc 71ea 3c3c
000001f0: 9d63 1e3b fa71 683c 7e58 c039 a249 853c
00000200: 2b7e f63b 52b5 0a3c 5127 403d 7735 cf3c
00000210: 3b74 3c3d 44ea 0c3d 8900 743b 61f4 a63b
00000220: a102 af3c 38aa 033b bfbd f43b ed70 9cba
00000230: 69e9 2c3c f5a2 8c3b 532c 823c 4d05 dbb9
00000240: 83c9 053d b1d3 b23c 80f9 37ba adb0 103d
00000250: 3306 28bc 5a7c 90b9 5647 463c 63e7 5abc
00000260: aad0 113d a287 3d3d 63cc 2d3d 8344 303b
00000270: 5e98 60ba b02c 443b 6fe7 bc3c d88c bd3c
00000280: ebb8 a03b 97cc 853c d15c 8a3b 4fee 32bc
00000290: 9f1b f23c 2269 2e3a 233c 1d3d f7ba 2a3d
000002a0: 0911 c03c abc6 44bc c5d6 803c 0004 b93a
000002b0: cee4 8b3c 7109 6fbc f35d a93c fc73 de3c
000002c0: efcd ac3c f293 a8bb 26a0 a93b f648 5e3b
000002d0: eaed 7dba f22a 433d f35b 103b 60ee d53c
000002e0: 3858 8b3c ef34 4bba b9a6 ad3c 9ce6 51bb
000002f0: bc3a c1bb 86b3 2b3c 4eaa 41bc 4451 df3c
00000300: 3568 7eba fb6a b93c 9d9b eb3c 3b6b 393c
00000310: 9de0 763c ab2a e53c 8f24 75bc 2f43 0dbc
00000320: 7926 323d 8377 66bb 79ee 8d3b a708 6b3c
00000330: 9dff 19bb bff8 b63c a958 2d3d 302d db3c
00000340: b7f0 983c a78b bcbc a63a e53a d0d9 4cbb
00000350: d38b 203d d39b 853c 8631 bd3c 484b 453d
00000360: 5802 063d 6680 aa3c 64b6 053b 257d 423b
00000370: 3333 583d f882 b93c 9580 893b dce0 ba3b
00000380: 5945 843c 4968 243b f20a 29bc 82cc de3c
00000390: 55bd ca3c 72fb 2e3c e129 8dbc 2279 173d
000003a0: af04 953c 0d0e 1a3d ec2a e83b 0c8e 74bb
000003b0: 660a fd3b f20b c13c ee6f 123d 68c1 e53c
000003c0: c081 5e3c e79c 153d 7f5f d0ba 4af9 0fbb
000003d0: 9b08 393c 4a74 7bbc 1b89 d43b af7c 663c
000003e0: a6ba 863c a574 193c c31a 413b 3fc2 413c
000003f0: fc20 b93c e2de a13c a669 c13c e2c2 dc3c
0.020369073 0.0039940816 0.023713762 0.05559459 0.020107172 -0.0015685653 0.021804767 0.007213759
-0.025993826 0.023288248 0.025679193 -0.0062434776 0.022733442 0.027823575 -0.0030477708 -0.014963905
0.020093275 0.000992837 -0.008250167 0.028165704 0.005749805 -0.0066462494 0.008807138 -0.0032683657
0.039217245 -0.017747983 0.020838164 0.0006428745 0.00071464706 0.009017445 0.02544006 -0.022269169
0.015131408 0.002554484 0.0014846594 0.04774336 -0.00051801495 0.006824317 0.007462651 -0.021278128
0.020395212 0.02005151 0.012516185 0.027348865 -0.0053020488 0.020960834 -0.0034506265 -0.00923782
0.006911194 0.019061856 0.026832331 0.021223253 -0.0024117355 -0.003398236 -0.003033091 -0.016887326
0.046762984 0.0026920065 -0.01105191 0.025064979 -0.004530616 0.02572873 -0.010242144 0.042042136
0.013830374 0.0032157577 0.022812515 0.009884739 0.02056351 -0.004583023 0.0045163766 -0.0047954265
0.009345947 -0.0034899889 0.018969068 -0.0018619206 0.0041606473 -0.0020486459 0.025846038 0.008675642
0.012660101 0.019557448 0.043973263 -0.0034472256 0.018226353 0.015183487 0.017023612 -0.00073022646
0.032470893 0.019853171 0.03318771 -0.014334156 0.0019838966 -0.0009649609 -0.014963378 0.020097025
0.028270898 0.03622629 0.0039037087 0.006682588 -0.00796763 0.001161935 0.00930092 0.023823043
0.04786315 -0.005501886 0.011430948 0.023905769 0.031162245 -0.006556353 0.0013736862 0.016070373
0.030771207 -0.0023800498 0.021636616 0.035932325 0.0317448 0.023345582 0.028383354 0.0020809215
0.026396854 0.030095506 -0.014572543 0.011530505 0.002416826 0.01418733 0.00036687026 0.016270462
0.0075223646 0.008466082 0.046912495 0.025294049 0.046009284 0.0344031 0.0037231764 0.00509505
0.021363558 0.0020090472 0.0074689086 -0.001193551 0.010553696 0.004291887 0.015890276 -0.00041774884
0.03266288 0.021829458 -0.00070180744 0.03532474 -0.010255384 -0.0002755847 0.012101969 -0.013360831
0.03559939 0.046271928 0.042431246 0.0026896305 -0.00085676264 0.0029933862 0.023059575 0.023138449
0.0049048564 0.016332908 0.0042224904 -0.010921075 0.029554186 0.0006653239 0.03838743 0.04168221
0.023445623 -0.012010257 0.01572741 0.0014115572 0.017076876 -0.014589653 0.020674681 0.027154915
0.02109429 -0.0051445896 0.005176562 0.0033918 -0.0009686636 0.047648378 0.0022027462 0.026114643
0.01700984 -0.0007751723 0.021197664 -0.0032028323 -0.0058968943 0.010479813 -0.011820389 0.02726043
-0.0009704859 0.02263402 0.028760726 0.01131707 0.0150682 0.027974447 -0.0149623295 -0.008621975
0.04349372 -0.003516645 0.0043314067 0.014345325 -0.0023498305 0.022335408 0.04232088 0.026754946
0.01866947 -0.02301581 0.0017488792 -0.0031257756 0.039195847 0.016309654 0.023094904 0.048167497
0.03271708 0.020813178 0.0020402903 0.0029676643 0.052783202 0.022645459 0.0041962364 0.005703075
0.016146349 0.0025086573 -0.010317551 0.027197126 0.024748484 0.010680066 -0.017231883 0.036980756
0.01819071 0.037611056 0.007085195 -0.0037316112 0.007722187 0.023565266 0.035751276 0.028046325
0.0135807395 0.036526587 -0.0015897601 -0.0021968656 0.011293556 -0.01534755 0.006486071 0.014067813
0.016446423 0.009366189 0.0029465414 0.011826097 0.022598736 0.0197596 0.023609947 0.026948396

network_body.linear_encoder.seq_layers.0.weight f4 [256, 46]
00000000: cb5e 58bc 2efe 17be 041e 963e 1a41 6cbe
00000010: c6f6 e63d 2336 913e 6a37 54bc 1a47 1d3e
00000020: 585d 17be 5aaa d9bc ba03 a1be 3e2e d6bd
00000030: bfa2 3c3e aab3 08be ca87 4ebe e865 e2bd
00000040: 8e62 aa3d 9ad5 863c f1c5 393d 8229 a3bd
00000050: 42ff 6d3e 2a98 b93d ee9b 68be 5678 12be
00000060: 7db4 acbd 563f 5abe da81 a63d efa9 c23d
00000070: f550 8fbe 3517 a4bd b1f5 c5be 809c 59bb
00000080: 7d7f 823e 15f3 3e3e 867c b93c 417a 73be
00000090: 8bb8 9e3d 6c93 92bc 521d 813e 63e5 2abe
000000a0: bd6d 5bbd 0c6f 5c3d 2b09 9c3e 40d3 30bd
000000b0: 62ab 233e c0c3 593e c0ef 84be 7e24 27be
000000c0: bb3d 1a3e 4a81 8b3d dadf 7f3e 498f e93d
000000d0: 974b 483d 3ecf dcbd 1f2d 783e ee89 30be
000000e0: e951 a7bd 6f5c 483d 60c1 67bd 9d71 723e
000000f0: df6c fcbd d18c 2dbc 4d23 26bb a2cc d73b
00000100: 7b3f 9fbc cd4f 263e dffa dcbd 19d7 89be
00000110: 2237 1cbe 669c 223e 0dec 8f3d 094b fcbd
00000120: 91e0 843e e258 b2bc 6188 583d 8af0 03be
00000130: fa02 6b3e b241 3c3e d312 93bd 1d6d 053e
00000140: 63ad 063e b12e 01be f2d0 733e 2b02 723c
00000150: f8b5 a6be b4e5 39be 7ce2 ebbd adc8 a2be
00000160: 9657 043e 186f 053e ad6b 1e3b b5fb 833e
00000170: f8bc a6bd ec19 7dbe ad61 6ebe 81b9 99bc
00000180: 8dfe 753e 8d06 90bd b053 b5be 41df e8bd
00000190: 1e4a a73e 1a87 fb3d 126a acbe 0aa7 e2bd
000001a0: e6d4 a9bd ef03 1c3e a1d5 75be 62a9 4b3e
000001b0: 7381 093c 8d33 89bb f50c 7fbe 5aa2 4e3d
000001c0: 0522 893d dee3 193f 3697 263d d0c1 ba3e
000001d0: 2ad8 e3bd 944b c63d 1c62 a8bc b0b9 8cbd
000001e0: d9c6 53be 933a cfbd ee1f 53bd 5fc0 863b
000001f0: 0d7c 67be f1ce 0abe f5c4 cebd f30e 173e
00000200: db8a 71ba e4e2 3c3e ae0a 75be c8aa 0abe
00000210: 9878 d1bd a508 543e bf7e afbd d038 05be
00000220: c9aa 623d 46eb b4bd 8d64 ac3c dd23 a03c
00000230: e228 943b 432d b73d 9146 85bd f86a 48bd
00000240: f476 84ba b94b 893d 363a 60be 1147 79bd
00000250: 4a30 39bc c0e3 f33d ca31 02be fc9f 43be
00000260: 01b1 4cbe b016 12bd 8244 803e 5ce0 043e
00000270: fd87 09be d394 fe3d 8917 6dbe 1588 42be
00000280: 94c4 76bc 684b 353d a79f 45be c7c3 2c3e
00000290: 3888 843d 5411 443e 0015 66be e44f 723e
000002a0: d52e d1bc 03d2 8cbd bec0 843d 588e 0e3e
000002b0: 62d7 d9bd 6208 01be 5202 383b f663 09bf
000002c0: 39b0 1abe 305d b6bd 8bdd 063e 8f03 d0bc
000002d0: 4ff4 6c3d c9eb 55bd 4066 99bc 4eb8 a23e
000002e0: 857d 2c3e bdf4 103e 5f76 71be f234 2d3e
000002f0: f55b 5abd 7042 5b3c 39db ca3e 6eac c83d
00000300: 5642 08bd cf1e f8bc 9819 1c3d 6697 533d
00000310: b343 3b3e 82b1 7b3e 859d 11bd 408c 01be
00000320: 023b 80bd a759 8c3d 8776 323e f563 823e
00000330: 8cda f8bc 56b3 04be e1f2 2cbe d962 4cbd
00000340: 297a 3bbd 8f03 b33d cd86 183e 1de9 f1bd
00000350: 8b02 92be f97a 373a 0a31 4b3d 9479 fb3b
00000360: fc98 f23d d4de 94bd d3d1 1cbe 05a9 743e
00000370: 5381 3abe 206b 0bbe 9cbc 9b3d c6b6 823d
00000380: f59a 31bc ca13 3b3d 501d c0be 5921 4bbe
00000390: 5d18 773d 7097 643d da8d 263e e586 e03d
000003a0: b40f 10be 9ee3 8f3d 9a40 8bbe 6009 30be
000003b0: 3315 8cbe a4f9 5ebe 5084 24be 0e21 a0bc
000003c0: f7f1 08be 0b69 abbe 5fb8 c93d d89e 013f
000003d0: 04de c8bc 9f8e 033e 68d1 b03d a7d2 763e
000003e0: 5b29 8bbb a2a0 863d e507 c0bd c4d8 72be
000003f0: 79ee c6bd 2b5d c8bd 9dba 8cbd b527 07be
-0.013206194 -0.14843056 0.29319775 -0.2307171 0.11277537 0.28361616 -0.012952665 0.15359154
-0.14781702 -0.026570488 -0.31448156 -0.10458039 0.18421458 -0.13349786 -0.20168987 -0.11054593
0.08319579 0.016459275 0.045354787 -0.07966901 0.23241904 0.09062226 -0.22715732 -0.14303717
-0.08432863 -0.21313223 0.08130236 0.095050685 -0.27991453 -0.08012239 -0.3866401 -0.0033204854
0.2548789 0.18647416 0.022642385 -0.23777105 0.077500425 -0.017892562 0.25217682 -0.16689067
-0.05357145 0.05381684 0.30475745 -0.043170214 0.15983346 0.21266079 -0.25964165 -0.16322514
0.15062611 0.06811769 0.24987736 0.114042826 0.048900213 -0.10781716 0.24235962 -0.17240116
-0.0816992 0.048916277 -0.0565809 0.23676153 -0.12325453 -0.010592655 -0.002535063 0.0065856734
-0.01943945 0.16241379 -0.10790037 -0.2692192 -0.15255406 0.15879974 0.07027445 -0.12318999
0.2595258 -0.021770898 0.052864436 -0.12884727 0.22950354 0.18384436 -0.07181325 0.13029905
0.1315208 -0.12615468 0.23810175 0.014771025 -0.32560706 -0.18154031 -0.11517808 -0.31793728
0.12924036 0.1303066 0.0024173066 0.25777975 -0.08141512 -0.2471692 -0.23279448 -0.018765213
0.24022885 -0.070324995 -0.3541541 -0.11370707 0.32673734 0.12281628 -0.33674675 -0.110670164
-0.0829256 0.15235876 -0.24007274 0.19888833 0.0083926795 -0.0041870535 -0.24907286 0.0504478
0.06695942 0.6011332 0.04067155 0.36475992 -0.111252144 0.09682384 -0.020554595 -0.068713546
-0.20681323 -0.10118594 -0.051544122 0.004112288 -0.22605915 -0.13555504 -0.1009616 0.14751796
-0.00092141115 0.18445927 -0.23929855 -0.1354171 -0.102280796 0.20706423 -0.08569097 -0.13009953
0.055338655 -0.08833937 0.02104404 0.019548351 0.004521475 0.0894418 -0.065076 -0.04893014
-0.0010106252 0.06703896 -0.21897206 -0.06085879 -0.011303017 0.11908674 -0.12714306 -0.19103998
-0.19989397 -0.035666168 0.25052267 0.12976211 -0.13430782 0.1243073 -0.23153509 -0.18997224
-0.015061516 0.044261366 -0.19299184 0.16871558 0.06471294 0.19147235 -0.22468948 0.23663288
-0.025535027 -0.06875994 0.06482075 0.13921487 -0.10636784 -0.12600854 0.0028077555 -0.53668153
-0.15106286 -0.08904493 0.1317045 -0.025392322 0.05785018 -0.052226815 -0.018725514 0.31781238
0.16844757 0.1415586 -0.23580311 0.16914728 -0.053310353 0.013382539 0.3962038 0.09798513
-0.033266388 -0.030288128 0.038110346 0.051658057 0.18287544 0.24579433 -0.035550613 -0.12651157
-0.06261255 0.06853037 0.17428027 0.25466886 -0.030377649 -0.12959036 -0.16889526 -0.049898956
-0.045770798 0.08740913 0.14895172 -0.11812041 -0.28517565 0.00069992203 0.049607314 0.0076744054
0.11845586 -0.072690636 -0.15314417 0.23892601 -0.18213396 -0.13615084 0.07604334 0.063825175
-0.010840167 0.04567317 -0.37522364 -0.1983694 0.06032597 0.055808485 0.1626505 0.10963229
-0.1406849 0.070258364 -0.27197725 -0.17191076 -0.27359924 -0.21774918 -0.16066098 -0.019547012
-0.13373552 -0.3347858 0.09849619 0.50633 -0.024519928 0.12847374 0.08633691 0.24103795
-0.0042468733 0.06573607 -0.09376506 -0.23715502 -0.09713454 -0.097833954 -0.06871531 -0.13198741

network_body.linear_encoder.seq_layers.2.bias f4 [256]
00000000: 1c5c 8c3b 842e af3b db28 a13b 38cb c73b
00000010: eaf9 313c 9a7d fe3c d448 773c 53db 043d
00000020: ddd0 4dbc 8f52 e53b 7382 86ba 5deb 6c3c
00000030: 862d e83c 29b0 8c3c 9bb9 b53b 31c2 adbb
00000040: b2cf d23a 203f 573c 2697 903c 743a 8c3c
00000050: 6fc1 803c 5fd2 6a3c 2647 053d 625a 8a3c
00000060: 5a4a 3c3c ddf5 df3b 16e5 953b 507f 013d
00000070: 5491 db3b 1a35 133c ff5a 2e3c 8beb d33c
00000080: 4100 4b3c be32 493c 6889 81b9 0c92 0f3c
00000090: 474e 423c 8476 473b ac12 f53b 4c7b 983b
000000a0: 65a6 263c 6668 51ba 914a 7d3c 630b bc3c
000000b0: 8a32 623c acba a93b 31b2 283b 3643 d23a
000000c0: bb9f 913b 758c 383c 1600 3f3c 5f93 d6ba
000000d0: a58c ca3b 1dc6 a93b 4cdb 4f3c d423 463b
000000e0: ea65 a03c 11d7 283c 0000 cd3c 1e59 45bb
000000f0: c838 943b 06c3 bd3c 47b8 c23c 92d0 0bbb
00000100: a880 dd3c fa19 c13c 4409 f93b 2828 5f3c
00000110: cd19 9a3c 4e4e ceba 36f9 853b edc2 423c
00000120: 67b3 3f3c f86c e4ba affd 723c 13c1 fc3b
00000130: a687 27bb 207c 913c 01cd 9f3b f6f8 8c3c
00000140: 0d27 cb3b 7747 893c 9e30 8bbb 606d 2a3c
00000150: aeda a33b b79d 9f3c d9d9 e93c cafd f63b
00000160: 8d0c 823c 7f01 f53a e186 e4bb ebed 183c
00000170: 32b5 26bc e6ad 293b 8165 183c 6421 ed3c
00000180: ab96 ea3c e171 843c f6fa 583c 4dd3 153c
00000190: b7cb 1f3b e3d5 09bc 821c 063c 6347 a23c
000001a0: e5b2 a13c 91cd 313c f76f a13c 1600 083c
000001b0: 8c28 4f3c 6fbb 703c 331d 3b3b 0d36 f4bb
000001c0: dc63 e83b 5fc5 763c a53b d83c 7588 183b
000001d0: f098 f83c 0e0c 033c f20c 2d3b 130b e33b
000001e0: 2f3d 833c a888 de3b 079e 243c 4abc c239
000001f0: 7950 613c 6116 3b3c e2f9 693c d301 3e3c
00000200: 2c47 1c3c 2ec2 3f3c 7976 213c 67c3 963c
00000210: 9773 523c 60fa 573b cf37 cc3c deb6 c03c
00000220: 55c2 1a3c 4508 8ebb acc3 a03c 8ab5 d93b
00000230: 6ee4 d83b aa44 ab3c 2e2e a73b 510e 6f3b
00000240: ef74 8b3c 64e8 253c 5952 5a3b 35ee 7e3c
00000250: 5487 873c 0896 703c b381 db3c 16d8 943c
00000260: 280c 023c 1905 443c e153 fb3c d375 913c
00000270: f5e9 13bb 61a6 443c 4eb7 953c 9fb0 d03a
00000280: 9470 eabb b1cc a03c 5518 2d3c 30c9 003c
00000290: 8ae1 973b 3078 ba3c a943 e33c 5b14 b93c
000002a0: 5b18 943c 4a96 c23b f60b 0aba d02a 023c
000002b0: a009 1f3c f6ef 1bbb 9dcc 9e3c a659 e0bb
000002c0: 8081 863c 7648 fc3c 52d3 4abb 4709 013d
000002d0: eee5 053d be08 4d3c 3bac 313c f43f 623c
000002e0: 3fa3 4e3c 0a1f f93a 32e2 7c3c 82f8 c63b
000002f0: ecdb 963c 4b32 dc3b 4581 e53c 5422 c63c
00000300: 6eae 333c ad43 30bc 7f74 403c 84b5 003c
00000310: 3b1c 803c 13a2 073d 667f 5e3b af1e 3a3c
00000320: 958e a93c c16f 9f3c 510d 9a3c 64b2 923c
00000330: 0f24 f83b 122e 963c a6a0 763a 664f ce3c
00000340: abe3 7639 e5d9 b43c 18f3 c5bb 9f57 983b
00000350: 46ac ac3c d184 563c 5e1c be3b b113 e93b
00000360: 2e83 f33c b7a0 563c fbc4 423c 2b64 243c
00000370: 9ca7 23bb d09a 23bc d91d 8d3b 050d 1e3c
00000380: 51b7 3f3c 154c 64bc 784f 943c ecdb 253c
00000390: 20ee 9e3c 96f9 9f3c d1ac 223b 1a72 7a3c
000003a0: 4863 3f3c 2605 8b3c dfbd bc39 cbac 013d
000003b0: 75be bf3a b970 4cbb adf1 c33c c86b 863b
000003c0: b97d fc3b a857 df3b 4abf 923b cfbe fc3b
000003d0: f7b4 223c 2ba3 8c3c 013b d0ba edf1 763c
000003e0: fc11 903c adfc d43b 1263 9f3c abb9 873c
000003f0: 765d 2cbc 634b 043c 12b7 6e3c f378 ca3c
0.004283441 0.0053461213 0.0049182004 0.0060972236 0.010862807 0.03106575 0.015093047 0.032435726
-0.012562004 0.006998367 -0.0010262266 0.014460412 0.02834202 0.017173843 0.0055458075 -0.0053026904
0.0016083627 0.013137609 0.017650198 0.017117716 0.015717236 0.014332383 0.032538556 0.016888801
0.011492336 0.006834729 0.0045744283 0.031615555 0.006700674 0.008984828 0.010641812 0.025869152
0.012390197 0.012280164 -0.00024707173 0.008762848 0.011859483 0.003043563 0.0074790325 0.00465337
0.0101715075 -0.0007988274 0.015459673 0.022954648 0.013805995 0.0051797237 0.0025740976 0.0016041759
0.00444409 0.011263956 0.011657735 -0.0016370824 0.006181317 0.0051810876 0.012686562 0.0030233758
0.019579846 0.010305182 0.025024414 -0.0030112932 0.0045233704 0.023164283 0.02376951 -0.0021334034
0.027038887 0.023571957 0.0075999815 0.013620414 0.01881113 -0.0015739889 0.004088546 0.011887294
0.011700488 -0.0017427495 0.014830991 0.007713446 -0.002556303 0.017759383 0.0048767333 0.017208558
0.0061997236 0.01675771 -0.004247739 0.010402054 0.005000434 0.019484384 0.02854626 0.007537578
0.015875125 0.0018692462 -0.0069740866 0.009334068 -0.010175036 0.0025891005 0.009301544 0.028946586
0.028636297 0.016167583 0.0132434275 0.009144616 0.0024382898 -0.008412811 0.008185508 0.01980943
0.019738624 0.0108522335 0.01970671 0.008300802 0.0126439445 0.014693125 0.002855134 -0.0074527324
0.0070919823 0.015061705 0.026395628 0.0023274694 0.030346364 0.0079984795 0.002640542 0.0069288104
0.016020386 0.006791193 0.010047442 0.0003714285 0.013752096 0.01141891 0.014280768 0.011597115
0.009538453 0.011704011 0.009854906 0.018403722 0.012844942 0.0032955632 0.024928955 0.023524698
0.009445746 -0.004334482 0.019624554 0.0066439556 0.006619028 0.020906765 0.0051019406 0.003647704
0.017023532 0.010126207 0.0033313243 0.015559723 0.016544022 0.014684208 0.026795244 0.018169444
0.007937469 0.011964106 0.030679645 0.017756378 -0.002256987 0.012002558 0.018275883 0.0015921778
-0.0071545336 0.019628854 0.010564883 0.007860467 0.0046350406 0.022762388 0.027742224 0.022592714
0.01807802 0.005938326 -0.00052660645 0.007944778 0.009706885 -0.002379415 0.019384677 -0.0068466244
0.016419172 0.03079627 -0.003094871 0.03150299 0.03268998 0.012514291 0.010844286 0.013809193
0.012612163 0.0019006443 0.015434789 0.006072105 0.018415414 0.0067198626 0.028015742 0.02418629
0.01096688 -0.010758323 0.011746525 0.007855777 0.015638461 0.03311355 0.0033950447 0.011359855
0.020697871 0.019462468 0.018805178 0.017907329 0.007572658 0.018332515 0.0009408094 0.025184345
0.00023545201 0.022076556 -0.006040942 0.004649117 0.02107824 0.013093189 0.0058017215 0.007112943
0.029725637 0.013099841 0.011887784 0.0100336475 -0.002497173 -0.009985641 0.0043065366 0.009646659
0.011701421 -0.013934155 0.0181043 0.010123234 0.019400656 0.019528192 0.0024822245 0.015285993
0.011681385 0.016970228 0.0003599962 0.03165893 0.0014628904 -0.0031195118 0.02391895 0.004102204
0.007705417 0.0068158694 0.00447837 0.007713176 0.009930841 0.017167648 -0.0015886725 0.015072328
0.0175867 0.006499848 0.01945642 0.016568026 -0.01052033 0.008074614 0.014570015 0.024715876

network_body.linear_encoder.seq_layers.2.weight f4 [256, 256]
00000000: 39fd 073e d2ef c93c b6c4 1bbd fee8 0a3d
00000010: 01ad 023e 508d 293d 8a50 083d 8125 81bd
00000020: 1089 67bd faa9 193e 1a08 29bd c933 0d3d
00000030: f104 0d3d c5ca c1bc cdb4 753d fb29 c43d
00000040: fae7 eabc 528e 8bba b26a bdbd 1583 6f3d
00000050: 62a3 943d 2a44 fdbc 9cc3 04be de54 95bd
00000060: 008c d43c 8725 983d acf3 a2bd 2a23 85bc
00000070: 1d3e 6abd 6364 293e d6be 233d 4123 073c
00000080: 36c0 213b 3128 22bc d2b3 8a3d 2e4c 5e3d
00000090: 8e82 d3bd c5dd 38bd 2c44 adbd 3843 1dbe
000000a0: 4ea4 913d 36a0 b8bd 9a4d 123c a960 04be
000000b0: 3727 a1bc 4b56 f73c badd df3c fec5 6ebd
000000c0: 0fba 71bc 76f3 583d a6cd a4bc 011a d5bc
000000d0: 07ed 45bd cebc c03d 208c 5cbd 9dbc 1ebd
000000e0: 3572 4ebd 11e1 c03d 379e f23c 4085 273c
000000f0: 3701 b4bd 4f3a 243d 8e24 ac3d 3734 afbd
00000100: d599 3d3d 57ea 523d c5cc 6bbc a028 3e3b
00000110: c6a2 183a addc a9bd 0f4d ecbb f47a fe3a
00000120: 616e 5c3d cf8a 673d bcb8 853d 6a60 a8bd
00000130: 3e01 8f3d 7481 553d a456 be3c 124f 98bc
00000140: 43aa 05bb 0b89 343c 9a1b fb3d 6e52 89bd
00000150: 60d7 15be 575d 8d3d 6203 f23c 0441 3abc
00000160: 3945 a43d 26ac 98bd 13b6 6ebd 2313 933c
00000170: 96e3 9abd f70b 3a3d 9e37 143d 8026 f5bc
00000180: 3d2b 2a3d 3aef 383c 6b41 8dbd e94c 36bd
00000190: 3040 213c f904 d9bc 9bde c13d 641b 5fbc
000001a0: 9b13 113c 78fe 5a3b 34d6 89bd 82f0 c638
000001b0: d4c1 03bd 1224 e6bc 30d3 62bc 2a84 83bd
000001c0: 8727 1e3e c20b 43bd 1cd7 aa3d 4605 243c
000001d0: 3fa9 92bd 7d35 943d 8a6b aabd 5a2a 85bd
000001e0: f99d bfbd 0a65 b33c 28cb 1b3d cc97 56bb
000001f0: 54e2 8d3b 5120 2bbd 46a1 9dbd b098 9d3d
00000200: c509 c4bc 6599 98bd 5b70 df3c ef8b a1bd
00000210: c49e 493d c503 1a3d 0dec ec3b 8735 c13c
00000220: 6c06 543d d703 1fbd 594f bf3d 6941 acbc
00000230: 27d2 8ebd b81f a33c 0206 053d 5f72 553d
00000240: 75ab 093d df73 423d 1eee 9e3c eaf6 a43d
00000250: c58c a0bd b4a3 debc c6e2 1e3c d099 0bbc
00000260: bcf5 34bd 17dd 01be 30fb 7b3d a08f 67bd
00000270: fe1c 93bd 338e d23c 4194 d43b 0baa 53bd
00000280: 2704 16be 8e99 d4bc 90f2 0e3d 1ecc dabd
00000290: 0c9f 8dbd ed0c 1abd daa1 0c3d 7c7e 003e
000002a0: 1b05 b73d 277f e2bc 862a 8ebd 060c b03d
000002b0: 2452 323d e466 fe3d ae29 d03c 604f 73bd
000002c0: 8206 7ebd 00ce b9bd 5653 353d 6247 efbc
000002d0: 746b 843d f9ac 50bd 61b5 ca3c 7eae 0e3e
000002e0: 86a8 953d e07c 1dbd ff28 2c3d 834d 2dbd
000002f0: 870e 9f3d 9463 a6bd 493a 1a3d 970d 14bd
00000300: 6bf8 d13c ae4d e0bc 1772 2ebd 87bd 4bbd
00000310: 9ed0 c8bc 6824 033e 01bd 893d e585 0abd
00000320: 0c08 323d 5927 e43c 376f 333a 51fe 17bd
00000330: 0e89 a73d 6fde abb9 fe41 243d 89fa 723d
00000340: 91f0 80bd 972d 833c f16c 93bc da8a 473d
00000350: 8d69 b6bd 9d40 03be f865 bb3c 3c77 90bd
00000360: 1287 39bc d336 c0bd c845 823c 8273 a03d
00000370: 1a24 9c3d 268d 33bd 98d1 e5bc 0f1e 90bd
00000380: 1fcd 92bd 8bed a5bd 7992 a73d b1b1 58bd
00000390: 703a bc3c 4720 dfbb 3c1e 0a3e 0a10 2bbd
000003a0: 524a 7dbc fc52 bf3d 218f 81bd 5123 e9bd
000003b0: 9cb5 423c cd05 27bd 7e4d 80bd bfbd 34bb
000003c0: 288e 103e e708 b63d 3890 a6bd e05d 20bd
000003d0: 4383 77bd ca6e aebc 7385 863b 25f0 aebd
000003e0: 8eb9 7f3d 2fb3 a2bd 246d aabc f557 a4bd
000003f0: 7c30 a53d 5ae5 113d 71cf e93c 6823 b83c
0.1328019 0.024650488 -0.038029395 0.033913605 0.12761308 0.04139453 0.033279933 -0.063059814
-0.056527197 0.15006247 -0.041267492 0.034473214 0.03442854 -0.023656258 0.05998688 0.0957832
-0.028675068 -0.0010647273 -0.09248866 0.05847462 0.07257725 -0.030916292 -0.12965244 -0.07291578
0.025945663 0.07429033 -0.07956633 -0.01625212 -0.057188142 0.165422 0.039976917 0.008248151
0.0024681217 -0.009897278 0.06772579 0.05427187 -0.10327636 -0.04513337 -0.084602684 -0.15357673
0.07111417 -0.09014933 0.0089296345 -0.12927498 -0.01967202 0.030192515 0.027327407 -0.05829429
-0.0147538325 0.052966557 -0.020117592 -0.026013376 -0.04832175 0.09411012 -0.05384457 -0.038754094
-0.050401885 0.09417928 0.029616458 0.01022464 -0.08789294 0.04009467 0.0840541 -0.08554881
0.046289284 0.051493015 -0.014392083 0.0029015914 0.0005822595 -0.08294044 -0.0072113345 0.0019415305
0.053816203 0.056528863 0.06529376 -0.082215145 0.06982659 0.05212541 0.023234673 -0.018592391
-0.0020395673 0.011019002 0.12261124 -0.06705175 -0.1463294 0.06902569 0.029542629 -0.01136804
0.08021016 -0.0745471 -0.05827911 0.017953461 -0.0756294 0.045421567 0.036185853 -0.029925585
0.04154514 0.011287505 -0.06897243 -0.04450694 0.009841964 -0.026491629 0.09466287 -0.01361737
0.008854772 0.0033415835 -0.06730309 9.486174e-05 -0.03216727 -0.028093372 -0.013844296 -0.06421693
0.15444766 -0.047618635 0.0834181 0.010011023 -0.071611874 0.072367646 -0.08321293 -0.065022185
-0.09356303 0.021898765 0.03803554 -0.0032744287 0.004329959 -0.041778866 -0.07696776 0.076951385
-0.02393044 -0.07451133 0.027275255 -0.07888018 0.049223676 0.03760125 0.007230288 0.023585094
0.051763937 -0.03882202 0.09341306 -0.021027284 -0.06973677 0.019912586 0.032476433 0.052111026
0.03361078 0.047473785 0.019400652 0.080549076 -0.0783935 -0.02717767 0.009697622 -0.0085205585
-0.044179663 -0.12681995 0.061518848 -0.056533456 -0.07183264 0.025702571 0.0064874 -0.051675837
-0.14650021 -0.025952127 0.034899294 -0.106834635 -0.069151014 -0.037609983 0.03433404 0.1254825
0.08936521 -0.027648522 -0.069417045 0.08596043 0.043535367 0.124219686 0.0254105 -0.05940187
-0.062017925 -0.090724945 0.04426893 -0.029208843 0.064658076 -0.05094621 0.024744691 0.13933751
0.07307534 -0.03844917 0.042031284 -0.04231025 0.07766443 -0.08124462 0.03765324 -0.036145773
0.02563115 -0.02738079 -0.042589273 -0.049741294 -0.024513539 0.12806857 0.06725503 -0.033819098
0.043464705 0.027850794 0.00068448804 -0.03710777 0.08180438 -0.00032781388 0.040101998 0.05932096
-0.062958844 0.01601295 -0.017996283 0.048716404 -0.08906851 -0.12817617 0.02287577 -0.07053992
-0.011323707 -0.09385457 0.015902415 0.07834531 0.07624073 -0.04383578 -0.028054044 -0.07036983
-0.0716803 -0.08101948 0.08182234 -0.052903835 0.022977084 -0.0068092677 0.13488096 -0.041763343
-0.015459614 0.09342 -0.06326128 -0.11383689 0.011884119 -0.040777016 -0.062647805 -0.0027578918
0.14116728 0.08888417 -0.08132976 -0.039152026 -0.060427915 -0.021293063 0.004105264 -0.08541898
0.062432818 -0.07944333 -0.020803995 -0.08024589 0.08065888 0.035619117 0.028541299 0.02247782
